HP/checkpoints/pretrained_AE.pt (torch, 8847 bytes, 8 tensors)

_project.weight f4 [4, 171]
0.08307236 0.2100388 4.29666e-05 -0.030070007 -0.023812955 0.27303433 0.0056608017 0.057863306
0.19495675 0.06948642 -0.025267638 -0.019680599 -0.057596833 -0.08513174 0.04294251 0.021322882
-0.012272344 0.053582758 0.09960779 0.04229295 0.13910809 0.05166777 0.10896362 -0.07717556
-0.0029394878 0.013592547 -0.05473421 0.067119665 0.111500636 0.079923585 -0.07540067 -0.03601597
-0.0015414227 0.021315357 0.07151872 -0.10123518 0.014632803 -0.01918483 0.0563969 0.06024647
-0.050205484 0.11236061 0.11373671 -0.021072198 0.10497786 0.13403744 -0.0075005614 0.066055
0.17345022 -0.015993977 0.064409666 0.081558295 -0.10311538 -0.010217581 0.008843525 0.09259066
-0.08749348 -0.027280573 -0.01672368 -0.0029478513 0.017605161 -0.07298082 -0.039439682 -0.04870063
0.121577635 0.11076221 0.018567154 -0.014953586 -0.026428543 -0.034816407 -0.06244084 -0.048953075
-0.025793435 -0.07855886 -0.08752922 -0.08430453 0.0053694197 -0.055219576 -0.12737578 -0.10792057
-0.02872465 0.09402272 0.015734717 -0.078327954 0.027636439 0.005852557 0.03159237 -0.036271144
-0.0076798433 0.09435332 0.085327685 0.15444367 -0.004897175 -0.049393162 0.09028625 0.040006097
-0.006068688 0.01685619 -0.03721374 -0.029012956 0.07497257 0.030498182 0.06864455 0.022188542
-0.038450573 0.005580554 0.020759523 0.07180228 0.22888361 0.1285249 -0.030788668 0.012480541
-0.025297081 0.018469451 -0.02731622 0.24419427 -0.024754548 0.06594721 0.09633645 0.07871913
0.108471975 0.13655227 0.13319273 0.105817296 0.12919396 0.08240018 0.10890839 0.05028841
0.07499601 0.09650366 0.15289208 0.08647367 0.0762619 0.07461297 0.12271796 0.14042877
0.122726075 0.12677969 0.08390988 0.057467315 0.11542797 0.14243114 0.09312232 0.1381326
0.1533005 0.114134446 0.11814153 0.060316823 0.1401203 0.09528276 0.100655705 0.10859634
0.14158687 0.11732397 0.113701716 0.10995843 0.12291658 0.15599023 0.11553959 0.09897591
0.124793746 0.13024673 0.15665397 0.09222664 0.11642666 0.097592115 0.111842826 0.105334155
0.10289345 0.09440111 -0.01263398 -0.05565945 0.47314757 -0.073760726 0.060054027 -0.23951608
0.14692737 0.18136503 -0.037062652 0.02020235 0.06640101 -0.11547944 -0.12272981 -0.06602642
0.0046508843 0.108940355 0.060345985 -0.03442073 -0.00079672807 -0.06337826 -0.0056352913 0.022673279
0.17018026 0.06365197 0.0034088902 0.035359316 -0.0023773424 -0.027388256 0.0556921 -0.01372469
-0.06530562 -0.0068978416 0.07785303 -0.009514238 0.040283598 0.001723886 0.045449328 -0.020236867
0.050666496 -0.016986087 0.119660705 -0.05331443 -0.014010914 -0.027882066 0.015658934 0.07313351
0.10090263 0.11480075 -0.11438352 -0.0940967 0.028526098 -0.06261131 0.20509669 0.060820095
-0.13841437 -0.035117883 0.17436925 0.021104429 -0.09316503 -0.10435019 0.025297543 -0.028587846
-0.0030787194 -0.0709821 -0.057688035 0.12881963 0.035465695 -0.015824331 0.0428343 -0.086978346
0.056589853 0.11921871 0.118636236 0.06794951 0.004967641 0.02523605 0.025935158 0.0057373587
-0.036896747 0.08353437 0.04379613 0.066334814 -0.056228347 -0.04286988 0.023686618 -0.03248322
00000000: d721 aa3d 6914 573e 0937 3438 6055 f6bc
00000010: 6313 c3bc 28cb 8b3e 3f7e b93b 1302 6d3d
00000020: bea2 473e e54e 8e3d 14fe cebc 3539 a1bc
00000030: a8ea 6bbd 8d59 aebd 7ce4 2f3d 53ad ae3c
00000040: f111 49bc 9879 5b3d 2bff cb3d 5f3b 2d3d
00000050: 5a72 0e3e 95a1 533d 5228 df3d 380e 9ebd
00000060: 6ca4 40bb 46b3 5e3c fb30 60bd 0976 893d
00000070: 725a e43d faae a33d ab6b 9abd 7b85 13bd
00000080: 9009 caba 8b9d ae3c 6878 923d 6454 cfbd
00000090: 6dbe 6f3c 8129 9dbc 7000 673d 01c5 763d
000000a0: 44a4 4dbd 521d e63d cbee e83d 9a9f acbc
000000b0: a2fe d63d 1c41 093e 45c7 f5bb d847 873d
000000c0: ef9c 313e cd05 83bc 37e9 833d 0908 a73d
000000d0: 282e d3bd a467 27bc 6fe4 103c 2ca0 bd3d
000000e0: c82f b3bd 827b dfbc 1900 89bc bd30 41bb
000000f0: b338 903c f876 95bd 818b 21bd 507a 47bd
00000100: b2fd f83d 4cd7 e23d 251a 983c e3ff 74bc
00000110: ac80 d8bc a69b 0ebd f7c1 7fbd 0583 48bd
00000120: c14c d3bc 78e3 a0bd 8542 b3bd daa7 acbd
00000130: f5f1 af3b ec2d 62bd cc6e 02be 7605 ddbd
00000140: f54f ebbc fc8e c03d 18e6 803c 686a a0bd
00000150: d065 e23c cec6 bf3b 0067 013d 0d91 14bd
00000160: 32a7 fbbb 503c c13d 48c0 ae3d 7b26 1e3e
00000170: 7b78 a0bb 7c50 4abd ffe7 b83d 6fdd 233d
00000180: d8db c6bb fe15 8a3c 6f6d 18bd 94ac edbc
00000190: 388b 993d 53d7 f93c 8495 8c3d bfc4 b53c
000001a0: 597e 1dbd 14dd b63b e00f aa3c 130d 933d
000001b0: 7760 6a3e 089c 033e 8438 fcbc 2f7b 4c3c
000001c0: d33b cfbc 3f4d 973c 44c6 dfbc 100e 7a3e
000001d0: 0dca cabc 550f 873d 0b4c c53d 7f37 a13d
000001e0: 8e26 de3d 5cd4 0b3e ad63 083e bdb6 d83d
000001f0: 6c4b 043e 6dc1 a83d 5d0b df3d 38fb 4d3d
00000200: 8297 993d b6a3 c53d be8f 1c3e 1c19 b13d
00000210: 332f 9c3d afce 983d 8e53 fb3d 8fcc 0f3e
00000220: cf57 fb3d 89d2 013e f1d8 ab3d d962 6b3d
00000230: 8065 ec3d 78d9 113e eab6 be3d a272 0d3e
00000240: cefa 1c3e 52bf e93d 30f4 f13d c60e 773d
00000250: b27b 0f3e 9c23 c33d 9424 ce3d c267 de3d
00000260: 26fc 103e 8d47 f03d 72dc e83d e331 e13d
00000270: b0bb fb3d e7bb 1f3e 05a0 ec3d e2b3 ca3d
00000280: dd93 ff3d 665f 053e e669 203e 52e1 bc3d
00000290: 1a71 ee3d 60de c73d da0d e53d 6fb9 d73d
000002a0: cdb9 d23d 5f55 c13d c1fe 4ebc 2afb 63bd
000002b0: 6640 f23e dd0f 97bd 36fb 753d b443 75be
000002c0: 2174 163e c1b7 393e 02cf 17bd 667f a53c
000002d0: 41fd 873d 7c80 ecbd c459 fbbd dc38 87bd
000002e0: 7266 983b 1f1c df3d 5a2d 773d c0fc 0cbd
000002f0: 84db 50ba 76cc 81bd 40a8 b8bb 50bd b93c
00000300: bc43 2e3e f75b 823d b067 5f3b eed4 103d
00000310: 30cd 1bbb 565d e0bc 661d 643d 86dd 60bc
00000320: f4be 85bd 4a07 e2bb 6971 9f3d 9be1 1bbc
00000330: 6a00 253d 04f4 e13a 1329 3a3d c9c7 a5bc
00000340: ac87 4f3d 6826 8bbc ac10 f53d 3b60 5abd
00000350: 088e 65bc ee68 e4bc 2a47 803c 06c7 953d
00000360: 0aa6 ce3d a81c eb3d e841 eabd c5b5 c0bd
00000370: 90af e93c 5c3a 80bd de04 523e 7e1e 793d
00000380: 7fbc 0dbe c5d7 0fbd da8d 323e 32e3 ac3c
00000390: 4fcd bebd 8db5 d5bd cb3c cf3c 0f31 eabc
000003a0: 57c4 49bb 105f 91bd 4a4a 6cbd 4be9 033e
000003b0: 7a44 113d 07a2 81bc 0573 2f3d b421 b2bd
000003c0: c3ca 673d f028 f43d 8ef7 f23d 1d29 8b3d
000003d0: 98c7 a23b d5bb ce3c f875 d43c 7400 bc3b
000003e0: 0b21 17bd 1114 ab3d 9263 333d 8cda 873d
000003f0: b24f 66bd 5498 2fbd 700a c23c 200d 05bd

_project.bias f4 [4]
0.08314064 0.09549414 0.29205886 0.260358
00000000: a445 aa3d 6f92 c33d bd88 953e a54d 853e

_fc.weight f4 [4, 4]
0.37701043 0.67082345 0.114206366 -0.21261397 0.19197182 -0.35106978 0.32436028 -0.8439842
0.6424336 -0.06064574 0.49882224 0.042241964 -0.19021006 0.21877788 0.6649185 0.015143422
00000000: 8307 c13e 16bb 2b3f 07e5 e93d 7ab7 59be
00000010: 4394 443e 6bbf b3be 8d12 a63e 590f 58bf
00000020: 8776 243f ab67 78bd a165 ff3e e905 2d3d
00000030: 6dc6 42be 4f07 603e 1938 2a3f 1e1c 783c

_fc.bias f4 [4]
-0.15686889 -0.15438432 -0.41171175 -0.304971
00000000: 3da2 20be ec16 1ebe e2cb d2be 2925 9cbe

_project_inv.weight f4 [4, 4]
-0.079641 -0.11828727 0.6157481 0.15570089 -0.43051293 0.4332941 -0.09427532 0.6502539
-0.65033025 -0.52469814 -0.34379077 0.34193113 -0.11496044 0.032269068 -0.08719518 -0.50298196
00000000: d21a a3bd 9940 f2bd aba1 1d3f 0e70 1f3e
00000010: 316c dcbe b9d8 dd3e 6b13 c1bd 0a77 263f
00000020: 0b7c 26bf 9e52 06bf 5805 b0be 9911 af3e
00000030: 6170 ebbd 922c 043d 6393 b2bd 6dc3 00bf

_project_inv.bias f4 [4]
0.13837732 0.6158845 0.20483571 0.57693636
00000000: c9b2 0d3e 9baa 1d3f 74c0 513e 1ab2 133f

_decode.weight f4 [171, 4]
0.24081989 -0.45950693 0.26453948 0.967312 0.5515427 -0.6203751 -0.12594411 -0.8161659
0.5236071 0.3872112 0.6277131 -0.081048846 -0.34169403 0.0038420074 0.2015698 0.16557233
-0.17920789 1.17025 -0.79355013 0.87898636 0.70551914 -0.40299314 -0.2742552 0.5884197
0.09347917 0.008760212 0.09839142 -0.009637318 0.14311428 -0.03155648 0.025988605 0.22148108
0.43864873 -0.060236886 -0.035884652 0.39004973 0.02035037 -0.03606051 -0.022645388 -0.05138843
0.32708496 0.064418994 0.06650137 0.27835706 0.37896767 0.05996741 0.07170331 0.30821604
0.1432842 0.06069069 0.072603874 0.06751222 -0.07765788 0.02237299 0.042696852 -0.12848811
0.11150729 -0.039044864 0.03969341 -0.010873584 -0.11569836 -0.034751873 0.020800438 -0.07274096
0.000806415 -0.009591784 0.03379771 0.08757151 0.071117945 -0.039177034 0.029641204 0.15168463
0.16927138 0.06805873 -0.03401022 0.21574104 -0.09752707 0.051836643 -0.045355264 -0.0676896
0.32883573 -0.05538718 -0.041786406 0.3177149 -0.27255595 -0.09160528 -0.045841664 -0.3158931
0.14035141 -0.07160635 -0.048612155 0.12012723 -0.28387588 0.016566643 -0.026033359 -0.28110957
-0.037580077 0.004460948 0.02934942 0.038050957 0.07193897 0.0052024005 0.020277647 0.1315524
-0.053827755 0.0065966332 0.015228352 -0.033198092 0.03147414 -0.0150536075 -0.012293456 -0.0061833253
0.30394506 -0.0031715843 -0.011907538 0.27283624 0.29368025 -0.013223894 0.02343848 0.37296554
-0.26651633 0.025247037 -0.020727148 -0.2578601 -0.38458666 -0.017962724 -0.03004158 -0.3820902
-0.07376585 -0.0005933373 -0.02477971 -0.056978542 -0.0072668246 -0.03551356 0.0071595777 0.018338967
-0.032676008 0.04857548 -0.033301648 -0.0036995541 -0.40473264 0.024753708 -0.026243677 -0.4007232
-0.062789485 0.03466086 -0.022597853 -0.042798992 -0.11260481 -0.00150464 0.024983738 -0.05742785
0.2027547 -0.025361517 0.008807569 0.24887039 -0.0937713 -0.06585478 -0.033780467 -0.12271652
-0.07623881 0.030885473 -0.016564542 -0.05867967 0.3063357 -0.0111892335 -0.024399722 0.25495294
0.34119582 -0.008807694 -0.015292534 0.3041257 -0.23021573 0.021616396 -0.017230269 -0.22099441
0.052329585 -0.052403487 -0.02907601 0.03274412 0.083570875 -0.056903876 -0.025391446 0.035351835
-0.21626103 -0.048880883 0.007491226 -0.20128994 0.32214063 0.024703568 -0.025661362 0.36427978
0.38266912 0.054346766 -0.021401357 0.42373124 0.10179048 -0.004676225 0.02614522 0.019169983
0.20904955 0.025692863 -0.009798674 0.23024815 -0.28351113 -0.08344663 -0.031043846 -0.35455254
-0.35197982 -0.005964004 0.017820822 -0.3471124 0.24888179 0.07169778 -0.03038498 0.33671442
-0.02491914 0.034255944 -0.023805236 -0.0036412792 -0.18589109 -0.06050631 -0.023709513 -0.23678435
-0.14330676 0.009689009 0.03280101 -0.1868209 0.27610868 0.042499006 0.03806856 0.2566731
0.34835994 0.04723448 0.0360206 0.33356297 -0.029633764 -0.004947764 0.01778879 -0.008248334
0.22376303 0.010293806 0.017362477 0.2996324 -0.14234821 0.015581536 -0.017182782 -0.12078656
0.09446029 0.04837553 -0.030719427 0.15582219 0.15050821 0.028779466 0.029871091 0.1265654
00000000: 7d99 763e 7e44 ebbe b871 873e c2a1 773f
00000010: e731 0d3f e7d0 1ebf 7ef7 00be 40f0 50bf
00000020: 1d0b 063f 8c40 c63e ceb1 203f f0fc a5bd
00000030: 85f2 aebe 30ca 7b3b 5068 4e3e cb8b 293e
00000040: 4682 37be c1ca 953f 1a26 4bbf 4005 613f
00000050: e79c 343f 1e55 cebe 2d6b 8cbe aca2 163f
00000060: 0272 bf3d fe86 0f3c 7181 c93d d7e5 1dbc
00000070: 8d8c 123e 5e41 01bd 0ee6 d43c f0cb 623e
00000080: 9196 e03e f4ba 76bd c9fb 12bd 99b4 c73e
00000090: d2b5 a63c 2fb4 13bd d282 b9bc ad7c 52bd
000000a0: ae77 a73e 1bee 833d df31 883d d184 8e3e
000000b0: 0d08 c23e 63a0 753d 2fd9 923d 7ece 9d3e
000000c0: 18b9 123e cd96 783d 57b1 943d d943 8a3d
000000d0: 180b 9fbd 9047 b73c e5e2 2e3d 6392 03be
000000e0: ef5d e43d 82ed 1fbd 8f95 223d 1e27 32bc
000000f0: 43f3 ecbd fb57 0ebd ae65 aa3c 36f9 94bd
00000100: 9865 533a dc26 1dbc 786f 0a3d b158 b33d
00000110: 49a6 913d 1978 20bd 1cd2 f23c 3753 1b3e
00000120: 7a55 2d3e 6062 8b3d 4d4e 0bbd 38eb 5c3e
00000130: 46bc c7bd a952 543d 71c6 39bd d8a0 8abd
00000140: 285d a83e abdd 62bd 3928 2bbd 87ab a23e
00000150: 748c 8bbe 8d9b bbbd 78c4 3bbd bebc a1be
00000160: 48b8 0f3e 5aa6 92bd 8a1d 47bd 4405 f63d
00000170: 2e58 91be c5b6 873c e943 d5bc 98ed 8fbe
00000180: 91ed 19bd 252d 923b 326e f03c 52db 1b3d
00000190: bd54 933d e678 aa3b 4f1d a63c acb5 063e
000001a0: 7e7a 5cbd 9228 d83b 5680 793c b9fa 07bd
000001b0: 07eb 003d 68a3 76bc 7e6a 49bc 7e9d cabb
000001c0: b09e 9b3e 5bda 4fbb d617 43bc 31b1 8b3e
000001d0: 425d 963e 08a9 58bc 0e02 c03c 57f5 be3e
000001e0: d474 88be e0d2 ce3c fbcb a9bc 3d06 84be
000001f0: 8be8 c4be 9026 93bc c219 f6bc 54a1 c3be
00000200: 8d12 97bd 318a 1bba d2fe cabc 5562 69bd
00000210: 8b1e eebb ab76 11bd e49a ea3b 9a3b 963c
00000220: 47d7 05bd 15f7 463d 4f67 08bd 3874 72bb
00000230: 1e39 cfbe 4ac8 ca3c fbfc d6bc 972b cdbe
00000240: c697 80bd 8cf8 0d3d 221f b9bc ff4d 2fbd
00000250: 5a9d e6bd 5737 c5ba b2aa cc3c 7739 6bbd
00000260: ee9e 4f3e f5c2 cfbc 9f4d 103c e1d7 7e3e
00000270: 2b0b c0bd dfde 86bd 635d 0abd cd52 fbbd
00000280: 1823 9cbd 8803 fd3c 5db2 87bc 185a 70bd
00000290: 08d8 9c3e 0c53 37bc ede1 c7bc 3189 823e
000002a0: 38b1 ae3e 254e 10bc 898d 7abc 5db6 9b3e
000002b0: acbd 6bbe de14 b13c 7e26 8dbc 5c4c 62be
000002c0: 8c57 563d 0aa5 56bd d030 eebc b31e 063d
000002d0: 3527 ab3d 0a14 69bd b901 d0bc 16cd 103d
000002e0: 8873 5dbe 5237 48bd f578 f53b f31e 4ebe
000002f0: 9eef a43e 235f ca3c c737 d2bc e182 ba3e
00000300: 35ed c33e b79a 5e3d e651 afbc 4df3 d83e
00000310: 8777 d03d 053b 99bb 802e d63c 5e0a 9d3c
00000320: 1611 563e d779 d23c 9e8a 20bc 2cc6 6b3e
00000330: 5f28 91be 11e6 aabd aa4f febc e987 b5be
00000340: b336 b4be b16d c3bb f9fc 913c b7b8 b1be
00000350: deda 7e3e 49d6 923d ece9 f8bc d565 ac3e
00000360: 3923 ccbc f64f 0c3d 3303 c3bc 87a2 6ebb
00000370: 3c5a 3ebe 77d5 77bd 743a c2bc 9977 72be
00000380: 02bf 12be a6be 1e3c 5a5a 063d fa4d 3fbe
00000390: 1e5e 8d3e 7013 2e3d c7ed 1b3d a86a 833e
000003a0: 3c5c b23e f178 413d 568a 133d c4c8 aa3e
000003b0: 82c2 f2bc da20 a2bb ccb9 913c 0524 07bc
000003c0: 2322 653e 5aa7 283c c13b 8e3c 6b69 993e
000003d0: bbc3 11be b349 7f3c e8c2 8cbc f25e f7bd
000003e0: 6674 c13d 6b25 463d 4fa7 fbbc da8f 1f3e
000003f0: d31e 1a3e eac2 eb3c 38b4 f43c 5c9a 013e

_decode.bias f4 [171]
-0.19417877 0.5367861 -0.4462246 0.12105383 -0.119771376 -0.18541346 -0.048318256 -0.124591246
-0.2826495 0.04994286 -0.27055663 -0.30867067 -0.12425635 0.06641998 -0.035828397 0.09923746
-0.016112242 -0.06272437 -0.15454729 0.081277154 -0.20596063 0.29238474 -0.052738182 0.23339035
0.0071433717 -0.07811153 0.034571573 0.006600632 -0.21266106 -0.24874161 0.22149958 0.33533302
0.07153366 0.016575864 0.023850175 0.33408982 0.04585926 0.07848709 -0.15620163 0.13597554
0.05755378 -0.20545593 -0.23565653 0.18900347 0.0031840364 -0.0058238064 0.19966777 -0.2597309
-0.32430965 -0.054437768 -0.18047777 0.30578908 0.28735915 -0.23293947 0.021972524 0.20831037
0.11738865 -0.23272154 -0.28888512 0.022740282 -0.20895758 0.10703111 -0.10095364 -0.12769939
0.05718546 -0.11718649 -0.00116355 -0.1042961 -0.1509884 0.044902068 0.19693154 0.0777295
-0.065820724 0.14383568 0.20816551 0.19342622 0.055698525 -0.14890087 0.21931966 0.10600093
0.27540153 -0.11689489 0.0061628385 0.17921461 -0.2010367 -0.165431 -0.07330252 -0.26682436
0.24308832 -0.32645708 0.2562566 -0.111755826 -0.046265215 0.09209108 -0.09369836 -0.02948816
0.22345975 -0.0121855615 0.0841456 -0.18918197 -0.042973276 0.28471664 0.0888019 0.32245755
0.14470384 -0.065476105 0.045651104 -0.10577884 0.43264866 -0.2613457 0.38111302 -0.047957197
0.07410842 -0.19902103 -0.0014329376 0.40841722 -0.30278626 0.054397717 0.23666961 0.08487967
0.19400164 0.02687883 -0.11803648 -0.10147999 0.033349615 -0.09328874 0.16038601 0.024159133
0.33099055 0.20052853 0.08782663 -0.20168136 0.14241914 0.19563843 0.20920546 -0.043570176
-0.1363535 -0.04569311 -0.07132682 0.15848592 0.2988425 0.00085736904 -0.14691922 0.05961379
-0.111582145 -0.19431579 0.012686249 -0.019468175 0.2974022 -0.15104513 0.102032125 0.05118261
0.02255156 -0.17451155 -0.03481404 -0.025295561 0.0069798776 -0.06909344 -0.23330088 -0.02117465
0.0681285 -0.0567095 -0.09136896 -0.22871134 0.10972044 -0.016593121 0.07692182 0.1145622
-0.004776668 0.020639313 0.30336294
00000000: cdd6 46be d06a 093f 8d77 e4be 12eb f73d
00000010: b24a f5bd 07dd 3dbe 5de9 45bd b229 ffbd
00000020: 6fb7 90be e290 4c3d 6686 8abe 150a 9ebe
00000030: 1d7a febd 3307 883d ccc0 12bd 023d cb3d
00000040: d2fd 83bc a275 80bd a541 1ebe a374 a63d
00000050: 58e7 52be 74b3 953e fe03 58bd e1fd 6e3e
00000060: f212 ea3b f0f8 9fbd ec9a 0d3d 1d4a d83b
00000070: d2c3 59be 1fb6 7ebe c9d0 623e c5b0 ab3e
00000080: 3d80 923d 1bca 873c 7161 c33c d20d ab3e
00000090: ebd6 3b3d d7bd a03d 52f3 1fbe 2c3d 0b3e
000000a0: 83bd 6b3d 0a63 52be f24f 71be 208a 413e
000000b0: 44ab 503b a1d5 bebb b575 4c3e 73fb 84be
000000c0: ea0b a6be 23fa 5ebd 2acf 38be 6390 9c3e
000000d0: bd20 933e af87 6ebe b9ff b33c 504f 553e
000000e0: 7669 f03d 8e4e 6ebe c0e8 93be d449 ba3c
000000f0: faf8 55be 2033 db3d c8c0 cebd a1c3 02be
00000100: 4d3b 6a3d 78ff efbd 4282 98ba 3299 d5bd
00000110: b49c 1abe 3beb 373d 6ca8 493e a530 9f3d
00000120: 04cd 86bd a949 133e 5729 553e 8611 463e
00000130: 2324 643d 7879 18be 5595 603e 0417 d93d
00000140: 6e01 8d3e 9766 efbd a3f1 c93b 0984 373e
00000150: 91dc 4dbe be66 29be a21f 96bd 349d 88be
00000160: 25ec 783e 6225 a7be 1134 833e 3de0 e4bd
00000170: 9880 3dbd 409a bc3d ede4 bfbd 2791 f1bc
00000180: a2d2 643e f3a5 47bc 8754 ac3d ebb8 41be
00000190: bf04 30bd 61c6 913e c5dd b53d 2819 a53e
000001a0: 3e2d 143e 5618 86bd a7fc 3a3d 94a2 d8bd
000001b0: 2084 dd3e 1bcf 85be 3f21 c33e c46e 44bd
000001c0: 28c6 973d 2bcc 4bbe 68d1 bbba 101c d13e
000001d0: cd06 9bbe 24d0 5e3d 8559 723e 64d5 ad3d
000001e0: 5ea8 463e fe30 dc3c 1cbd f1bd bed4 cfbd
000001f0: 9b99 083d 2b0e bfbd 3b3c 243e 60e9 c53c
00000200: 9877 a93e 5a57 4d3e 73de b33d 8f85 4ebe
00000210: 53d6 113e 7155 483e f539 563e a476 32bd
00000220: 40a0 0bbe b328 3bbd cc13 92bd 224a 223e
00000230: e201 993e 10c1 603a fe71 16be 972d 743d
00000240: 2e85 e4bd b8fa 46be fcd9 4f3c b97b 9fbc
00000250: 1a45 983e 93ab 1abe 38f6 d03d dba4 513d
00000260: 0dbe b83c 28b3 32be 2b99 0ebd a338 cfbc
00000270: 75b7 e43b dd80 8dbd 6de6 6ebe 7676 adbc
00000280: f486 8b3d 3848 68bd a61f bbbd 4e33 6abe
00000290: 1cb5 e03d 4cee 87bc 3089 9d3d 969f ea3d
000002a0: 9885 9cbb c713 a93c 6352 9b3e
